…
snapshot: 5000
snapshot_prefix: "/home/king/Documents/king/caffe_learning/ch02/05/image_data_solver"
solver_mode: GPU
I0404 21:54:22.720913  6280 solver.cpp:92] Creating training net from train_net file: image_data_train.prototxt
I0404 21:54:22.721024  6280 net.cpp:51] Initializing net from parameters: 
state {
  phase: TRAIN
}
layer {
  name: "data"
  type: "ImageData"
  top: "data"
  top: "label"
  transform_param {
    scale: 0.00392156886
  }
  image_data_param {
    source: "train00.imglist"
    batch_size: 200
    new_height: 28
    new_width: 28
  }
}
layer {
  name: "ip1"
  type: "InnerProduct"
  bottom: "data"
  top: "ip1"
  inner_product_param {
    num_output: 50
    weight_filler {
      type: "xavier"
    }
  }
}
layer {
  name: "relu1"
  type: "ReLU"
  bottom: "ip1"
  top: "ip1"
}
layer {
  name: "ip2"
  type: "InnerProduct"
  bottom: "ip1"
  top: "ip2"
  inner_product_param {
    num_output: 10
    weight_filler {
      type: "xavier"
    }
  }
}
layer {
  name: "loss"
  type: "SoftmaxWithLoss"
  bottom: "ip2"
  bottom: "label"
  top: "loss"
}
I0404 21:54:22.721046  6280 layer_factory.hpp:77] Creating layer data
I0404 21:54:22.721063  6280 net.cpp:84] Creating Layer data
I0404 21:54:22.721069  6280 net.cpp:380] data -> data
I0404 21:54:22.721077  6280 net.cpp:380] data -> label
I0404 21:54:22.721086  6280 image_data_layer.cpp:38] Opening file train00.imglist
I0404 21:54:22.725643  6280 image_data_layer.cpp:63] A total of 14979 images.
I0404 21:54:22.725801  6280 image_data_layer.cpp:90] output data size: 200,3,28,28
I0404 21:54:22.728899  6280 net.cpp:122] Setting up data
I0404 21:54:22.728926  6280 net.cpp:129] Top shape: 200 3 28 28 (470400)
I0404 21:54:22.728930  6280 net.cpp:129] Top shape: 200 (200)
I0404 21:54:22.728934  6280 net.cpp:137] Memory required for data: 1882400
I0404 21:54:22.728955  6280 layer_factory.hpp:77] Creating layer ip1
I0404 21:54:22.728967  6280 net.cpp:84] Creating Layer ip1
I0404 21:54:22.728971  6280 net.cpp:406] ip1 <- data
I0404 21:54:22.728977  6280 net.cpp:380] ip1 -> ip1
I0404 21:54:22.729748  6280 net.cpp:122] Setting up ip1
I0404 21:54:22.729755  6280 net.cpp:129] Top shape: 200 50 (10000)
I0404 21:54:22.729759  6280 net.cpp:137] Memory required for data: 1922400
I0404 21:54:22.729781  6280 layer_factory.hpp:77] Creating layer relu1
I0404 21:54:22.729800  6280 net.cpp:84] Creating Layer relu1
I0404 21:54:22.729804  6280 net.cpp:406] relu1 <- ip1
I0404 21:54:22.729821  6280 net.cpp:367] relu1 -> ip1 (in-place)
I0404 21:54:23.067023  6280 net.cpp:122] Setting up relu1
I0404 21:54:23.067057  6280 net.cpp:129] Top shape: 200 50 (10000)
I0404 21:54:23.067061  6280 net.cpp:137] Memory required for data: 1962400
I0404 21:54:23.067066  6280 layer_factory.hpp:77] Creating layer ip2
I0404 21:54:23.067095  6280 net.cpp:84] Creating Layer ip2
I0404 21:54:23.067107  6280 net.cpp:406] ip2 <- ip1
I0404 21:54:23.067118  6280 net.cpp:380] ip2 -> ip2
I0404 21:54:23.067175  6280 net.cpp:122] Setting up ip2
I0404 21:54:23.067181  6280 net.cpp:129] Top shape: 200 10 (2000)
I0404 21:54:23.067184  6280 net.cpp:137] Memory required for data: 1970400
I0404 21:54:23.067198  6280 layer_factory.hpp:77] Creating layer loss
I0404 21:54:23.067204  6280 net.cpp:84] Creating Layer loss
I0404 21:54:23.067207  6280 net.cpp:406] loss <- ip2
I0404 21:54:23.067224  6280 net.cpp:406] loss <- label
I0404 21:54:23.067229  6280 net.cpp:380] loss -> loss
I0404 21:54:23.067250  6280 layer_factory.hpp:77] Creating layer loss
…
I0404 21:54:23.067654  6280 net.cpp:242] This network produces output loss
I0404 21:54:23.067659  6280 net.cpp:255] Network initialization done.
I0404 21:54:23.067726  6280 solver.cpp:190] Creating test net (#0) specified by test_net file: image_data_test.prototxt
I0404 21:54:23.067765  6280 net.cpp:51] Initializing net from parameters: 
state {
  phase: TEST
}
layer {
  name: "data"
  type: "ImageData"
  top: "data"
  top: "label"
  transform_param {
    scale: 0.00392156886
  }
  image_data_param {
    source: "test00.imglist"
    batch_size: 50
    new_height: 28
    new_width: 28
  }
}
layer {
  name: "ip1"
  type: "InnerProduct"
  bottom: "data"
  top: "ip1"
  inner_product_param {
    num_output: 50
    weight_filler {
      type: "xavier"
    }
  }
}
layer {
  name: "relu1"
  type: "ReLU"
  bottom: "ip1"
  top: "ip1"
}
layer {
  name: "ip2"
  type: "InnerProduct"
  bottom: "ip1"
  top: "ip2"
  inner_product_param {
    num_output: 10
    weight_filler {
      type: "xavier"
    }
  }
}
layer {
  name: "loss"
  type: "SoftmaxWithLoss"
  bottom: "ip2"
  bottom: "label"
  top: "loss"
}
I0404 21:54:23.067790  6280 layer_factory.hpp:77] Creating layer data
I0404 21:54:23.067816  6280 net.cpp:84] Creating Layer data
I0404 21:54:23.067819  6280 net.cpp:380] data -> data
I0404 21:54:23.067839  6280 net.cpp:380] data -> label
I0404 21:54:23.067844  6280 image_data_layer.cpp:38] Opening file test00.imglist
I0404 21:54:23.068905  6280 image_data_layer.cpp:63] A total of 3745 images.
I0404 21:54:23.068984  6280 image_data_layer.cpp:90] output data size: 50,3,28,28
I0404 21:54:23.069491  6280 net.cpp:122] Setting up data
I0404 21:54:23.069500  6280 net.cpp:129] Top shape: 50 3 28 28 (117600)
I0404 21:54:23.069504  6280 net.cpp:129] Top shape: 50 (50)
I0404 21:54:23.069507  6280 net.cpp:137] Memory required for data: 470600
I0404 21:54:23.069510  6280 layer_factory.hpp:77] Creating layer ip1
I0404 21:54:23.069516  6280 net.cpp:84] Creating Layer ip1
I0404 21:54:23.069519  6280 net.cpp:406] ip1 <- data
I0404 21:54:23.069540  6280 net.cpp:380] ip1 -> ip1
I0404 21:54:23.070129  6280 net.cpp:122] Setting up ip1
I0404 21:54:23.070137  6280 net.cpp:129] Top shape: 50 50 (2500)
I0404 21:54:23.070139  6280 net.cpp:137] Memory required for data: 480600
I0404 21:54:23.070147  6280 layer_factory.hpp:77] Creating layer relu1
I0404 21:54:23.070168  6280 net.cpp:84] Creating Layer relu1
I0404 21:54:23.070170  6280 net.cpp:406] relu1 <- ip1
I0404 21:54:23.070174  6280 net.cpp:367] relu1 -> ip1 (in-place)
I0404 21:54:23.070432  6280 net.cpp:122] Setting up relu1
I0404 21:54:23.070441  6280 net.cpp:129] Top shape: 50 50 (2500)
I0404 21:54:23.070444  6280 net.cpp:137] Memory required for data: 490600
I0404 21:54:23.070446  6280 layer_factory.hpp:77] Creating layer ip2
I0404 21:54:23.070452  6280 net.cpp:84] Creating Layer ip2
I0404 21:54:23.070471  6280 net.cpp:406] ip2 <- ip1
I0404 21:54:23.070474  6280 net.cpp:380] ip2 -> ip2
I0404 21:54:23.070487  6280 net.cpp:122] Setting up ip2
I0404 21:54:23.070492  6280 net.cpp:129] Top shape: 50 10 (500)
I0404 21:54:23.070495  6280 net.cpp:137] Memory required for data: 492600
I0404 21:54:23.070500  6280 layer_factory.hpp:77] Creating layer loss
I0404 21:54:23.070505  6280 net.cpp:84] Creating Layer loss
I0404 21:54:23.070509  6280 net.cpp:406] loss <- ip2
I0404 21:54:23.070513  6280 net.cpp:406] loss <- label
I0404 21:54:23.070518  6280 net.cpp:380] loss -> loss
I0404 21:54:23.070538  6280 layer_factory.hpp:77] Creating layer loss
…
